app/src/main/assets/bot_hi/spawn_hi.tflite (tflite, 16868 bytes, 6 tensors)

dense_4/MatMul_bias f4 [32]
0	0x3ed7c133	0.42139587
1	0x3eb7ef56	0.35924786
2	0x3eb2164f	0.34782645
3	0x3e107272	0.14106157
4	0x3e88ff2e	0.26757187
5	0x3e820597	0.2539489
6	0x3e81f8c9	0.2538512
7	0x3e8a62f0	0.27028608
8	0x3ed9a232	0.42506558
9	0x3eb883f6	0.36038178
10	0x3e7e55d9	0.24837436
11	0x3e768d6b	0.24077384
12	0x3e95bcab	0.29245505
13	0x3e8b4fb2	0.2720924
14	0x3eb0bc81	0.34518817
15	0x3e40d644	0.18831736
16	0x3e92501b	0.2857674
17	0x3e7324ca	0.23744503
18	0x3e482186	0.19544038
19	0x3ea2aa1e	0.31770414
20	0x3e0878f5	0.13327391
21	0x3e64f410	0.22358727
22	0x3dbba462	0.09162213
23	0x3e7ee629	0.24892487
24	0x3e8fbaaa	0.280721
25	0x3ea49c55	0.32150522
26	0x3e99fbf9	0.30075052
27	0x3eb54e33	0.35411224
28	0x3e644151	0.22290541
29	0x3e5fb9e1	0.21848251
30	0x3e1e3f13	0.15453748
31	0x3e803b6e	0.2504534

dense_4/kernel/transpose f4 [32, 95]
0	0xbe7b8ee4	-0.24566227
1	0x3d2ca3ef	0.042148527
2	0x3e0ef43f	0.1396036
3	0x3ea2d901	0.31806186
4	0x3e517821	0.20455982
5	0xbebb48c2	-0.36578947
6	0xbea2be9d	-0.3178605
7	0xbe21c628	-0.15798247
8	0xbe4541f5	-0.19263442
9	0x3dbee9b3	0.09321918
10	0xbeb6d504	-0.35709393
11	0x3e84bf1b	0.25927052
12	0x3dcc0023	0.099609636
13	0xbe9e06f9	-0.30864695
14	0xbe23fdc7	-0.16014777
15	0xbe1f72fb	-0.15571205
16	0x3e3035c8	0.17208016
17	0xbdc3e1d4	-0.09564558
18	0x3d453c37	0.04815313
19	0xbd0ab57b	-0.03386448
20	0xbeb23b54	-0.3481089
21	0x3e883577	0.2660329
22	0x3dbf5ce2	0.09343888
23	0x3dc14396	0.09436719
24	0xbdd1ae00	-0.10238266
25	0xba80374d	-0.0009782106
26	0xbe94c36d	-0.29055348
27	0xbaeb82cf	-0.0017968061
28	0xbc2d9889	-0.010595449
29	0xbe41d1cc	-0.18927687
30	0x3d4c181f	0.04982769
31	0x3e1eef8b	0.15521066
32	0x3e56094a	0.20901981
33	0xbe4d8309	-0.20069517
34	0x3ec0babe	0.37642473
35	0x3e47c566	0.19508895
36	0x3e287b4e	0.16453287
37	0x3e097f8b	0.1342756
38	0x3d9fa58a	0.07795246
39	0x3e2d1483	0.16902356
40	0x3da6e729	0.08149559
41	0xbe7049b4	-0.23465616
42	0xbcd0bfbb	-0.02548205
43	0xbcd8553a	-0.026407827
44	0x3e97cefa	0.29650098
45	0x3ec4f813	0.38470516
46	0xbe87be3d	-0.26512328
47	0xbd142c53	-0.036175083
48	0xbe6a36d1	-0.22872473
49	0x3e5736ef	0.21017049
50	0x3e415359	0.18879451
51	0xbdd9fa97	-0.10643499
52	0x3e943cc0	0.289526
53	0xbe9aa2a1	-0.302022
54	0xbd531158	-0.051530212
55	0xbddf7122	-0.1091025
56	0x3e86cac5	0.26326576
57	0x3e637a40	0.22214603
58	0xbe335b3f	-0.17515276
59	0x3dc2d469	0.0951317
60	0x3ea25acb	0.31709895
61	0x3e31fd4f	0.17381786
62	0xbdc9fa62	-0.0986221
63	0xbde9e5cb	-0.11420783
64	0x3e57db1c	0.21079677
65	0x3dc44122	0.095827356
66	0xbdc1e1f2	-0.09466924
67	0x3d19b444	0.03752543
68	0xbe1e22ce	-0.15442964
69	0x3e243570	0.1603601
70	0x3e02bbba	0.12766925
71	0x3e1665ca	0.14687267
72	0xbd628edc	-0.055312023
73	0xbe29d455	-0.16584904
74	0x3ef7421d	0.48292628
75	0x3c92619a	0.017868806
76	0xbe831fc2	-0.25610167
77	0xbc4a3862	-0.012342544
78	0xbe8be71e	-0.27324766
79	0xbe9fe67d	-0.31230536
80	0xbe183c08	-0.1486665
81	0xbe26f476	-0.16304192
82	0x3e826e37	0.25474712
83	0x3d5f7605	0.05455591
84	0x3eb5d850	0.35516596
85	0x3df2f10a	0.11862381
86	0x3f01f0f5	0.50758296
87	0xbe60b8ff	-0.2194557
88	0xbe1ff6be	-0.15621468
89	0xbd9f21ca	-0.077701166
90	0x3e9b1743	0.30291185
91	0xbe9d5cba	-0.30734807
92	0xbdd24e89	-0.10268886
93	0x3e8ed24d	0.27894822
94	0x3d440419	0.04785547
95	0xbeb9e311	-0.3630605
96	0x3e1b00a1	0.15136959
97	0x3dbcf006	0.09225468
98	0x3e6d2e38	0.23162162
99	0xbe135923	-0.14389472
100	0x3e7ff4d9	0.24995746
101	0x3ba6502c	0.005075475
102	0x3e6aac35	0.22917254
103	0x3db9df28	0.09075767
104	0x3e22e15a	0.15906277
105	0xbdab5190	-0.08365166
106	0xbe1e41b0	-0.15454745
107	0x3eb728b6	0.35773247
108	0xbe51b930	-0.204808
109	0xbd19a1f9	-0.037507985
110	0x3e5a4ffa	0.21319571
111	0xbc4999ab	-0.012304704
112	0xbb99711a	-0.004682672
113	0xbe56fbca	-0.20994487
114	0x3eb4db8c	0.3532375
115	0xbe3c1679	-0.18367948
116	0x3e91185d	0.283389
117	0x3ead245b	0.338168
118	0x3f0b64b7	0.54450554
119	0x3cebb260	0.02877158
120	0x3e9e7828	0.30951047
121	0xbe3b7ffa	-0.18310538
122	0x3e5ce058	0.21569955
123	0xbd9ffc06	-0.078117415
124	0x3ed6154d	0.41813126
125	0xbe3a2c55	-0.18180974
126	0x3e188f67	0.14898454
127	0xbda5ba99	-0.08092231
128	0xbc79d16b	-0.015247683
129	0x3d58ccbc	0.052929625
130	0x3c91aba0	0.017782032
131	0xbe41303b	-0.18866055
132	0x3ea5f61b	0.32414326
133	0xbe46f7f2	-0.19430521
134	0xbe9b0b79	-0.3028219
135	0xbd8b2288	-0.06793696
136	0xbe74f309	-0.23920836
137	0x3eb1ded2	0.3474031
138	0xbe5c7123	-0.21527533
139	0xbeb7d702	-0.35906225
140	0xbd83db6c	-0.06438336
141	0xbe352019	-0.17688026
142	0xbd930edf	-0.07180571
143	0x3e5bcd9e	0.21465155
144	0xbebd21c5	-0.36939827
145	0x3ea24f3d	0.3170108
146	0xbda28789	-0.079360075
147	0x3dfdc585	0.123911895
148	0x3e606e1e	0.21917006
149	0xbde71143	-0.11282589
150	0x3dc5d9db	0.09660693
151	0x3ea9df11	0.33178
152	0xbdb31308	-0.08743864
153	0x3e39e2a2	0.1815286
154	0x3e373a25	0.17893274
155	0x3ea0e6ec	0.3142618
156	0xbebcccfa	-0.36875135
157	0xbcae9968	-0.021313384
158	0x3d909e0c	0.07061395
159	0x3de3891e	0.111101374
160	0xbd2a3064	-0.041550055
161	0x3e7879cb	0.2426521
162	0xbd6c778f	-0.057731207
163	0x3eae9eeb	0.3410562
164	0x3cc0a14b	0.02351441
165	0xbe37354c	-0.17891425
166	0x3ee81b80	0.4533348
167	0x3e52f7e0	0.2060237
168	0xbe49369a	-0.19649735
169	0x3e6cd42b	0.2312781
170	0x3ebc0495	0.36722246
171	0x3df73918	0.12071437
172	0x3ebdcd85	0.3707086
173	0x3ec56854	0.3855616
174	0x3e65b987	0.22434054
175	0x3eabb83b	0.33538994
176	0xbe55ea24	-0.20890099
177	0x3bd42be9	0.006474961
178	0x3e9bc710	0.3042531
179	0x3e16607d	0.14685245
180	0xbe18b057	-0.14911018
181	0xbeb7f303	-0.3592759
182	0xbec3c625	-0.3823711
183	0x3dccb7e6	0.09996013
184	0xbdacf509	-0.08445174
185	0xbcfd10c0	-0.030891776
186	0x3d8c4305	0.068487205
187	0x3eab774f	0.33489463
188	0xbd79109d	-0.06080686
189	0x3eb23ce3	0.34812078
190	0x3e3acfcb	0.18243329
191	0xbd2e00c2	-0.04248119
192	0xbe0db2ed	-0.13837786
193	0x3d94cef3	0.07266035
194	0x3dcb6575	0.09931461
195	0xbe94afad	-0.2904028
196	0xbe881702	-0.26580054
197	0xbe9dc064	-0.30810845
198	0xbeaf770a	-0.34270507
199	0xbe1a3f86	-0.15063295
200	0x3da6f9d1	0.081531174
201	0xbc33e3b0	-0.010979578
202	0xbd8ac958	-0.067766845
203	0x3ea9693b	0.33088097
204	0xbe4b25b2	-0.19838598
205	0x3db4918c	0.08816823
206	0x3d23850c	0.039921805
207	0xbe67d31f	-0.2263913
208	0x3e14b604	0.14522558
209	0x3d1e0292	0.03857667
210	0x3da0622d	0.078312255
211	0x3de6275a	0.112379745
212	0x3d9b41a4	0.07580879
213	0xbe85b30d	-0.26113167
214	0x3d5337e6	0.05156698
215	0x3e234ccf	0.15947269
216	0xbc2e310c	-0.010631811
217	0xbd96ac78	-0.073571146
218	0xbc80bc00	-0.015714645
219	0xbdb7ebed	-0.08980546
220	0xbe2fa658	-0.17153299
221	0xbe51775c	-0.20455688
222	0x3e29b49f	0.16572808
223	0x3ee3d51c	0.44498527
224	0x3b4a0b5d	0.0030829527
225	0x3d6a292a	0.057168163
226	0x3ef16a5f	0.47151467
227	0x3d8aade0	0.06771445
228	0x3ed031e3	0.4066306
229	0xbe7b3d75	-0.24535163
230	0x3dd7fe3b	0.105465375
231	0x3ca622ac	0.020280205
232	0x3ee36117	0.4441001
233	0x3de1f320	0.110327005
234	0x3e8eb83a	0.2787493
235	0xbeb24022	-0.34814554
236	0xbd2303c0	-0.0397985
237	0x3d417ad4	0.04723628
238	0x3b5d0139	0.0033722653
239	0x3df2d9f0	0.118579745
240	0xbd92b6f4	-0.07163802
241	0x3e018b4a	0.12650791
242	0x3e20483a	0.15652552
243	0x3e6e6b99	0.23283233
244	0xbcb8a3f4	-0.022539116
245	0xbed3847d	-0.41312018
246	0xbb5deeff	-0.0033864377
247	0xbdb7ab9c	-0.08968279
248	0x3db5b6f4	0.08872786
249	0xbe2f86e8	-0.17141306
250	0xbe26c706	-0.16286859
251	0xbe010a4f	-0.12601589
252	0x3e3ea2c7	0.18616782
253	0x3d87e117	0.06634729
254	0xbe085ed5	-0.13317426
255	0x3d95624a	0.07294138

dense_5/MatMul_bias f4 [16]
0	0x3e06f8ae	0.13180801
1	0x3e4cc623	0.19997458
2	0x3deb2f25	0.114836015
3	0x3d0d45cb	0.034490388
4	0x3e3d2599	0.18471374
5	0x3de8a2c1	0.11359168
6	0x3e22bdd0	0.1589272
7	0x3d98fafa	0.07469745
8	0x3e3aa9bf	0.18228815
9	0x3d32ad07	0.043622043
10	0x3e126eb7	0.14300047
11	0x3e4d51f3	0.20050792
12	0x3e3bcfe4	0.18341023
13	0x3e584e42	0.21123603
14	0x3e265ea1	0.16247036
15	0x3ddbb5bd	0.10728023

dense_5/kernel/transpose f4 [16, 32]
0	0x3f1c1090	0.6096277
1	0xbe952575	-0.2913014
2	0x3da54cfb	0.080713235
3	0xbec1dd26	-0.37864035
4	0xbea166e7	-0.3152382
5	0x3ea9725e	0.33095068
6	0x3e929675	0.28630415
7	0x3e6c38e7	0.23068582
8	0x3f42d2c2	0.7610284
9	0x3f107376	0.5642618
10	0x3dab9c2e	0.08379398
11	0xbea768da	-0.32697183
12	0x3f00c770	0.5030432
13	0x3e9c2b67	0.30501863
14	0xbddc52b4	-0.10757962
15	0xbe4d66eb	-0.20058791
16	0xbf3d265f	-0.73886675
17	0x3d99a717	0.07502573
18	0xbdec3ff3	-0.11535635
19	0xbf131ed6	-0.57468927
20	0xbe979e38	-0.296129
21	0x3e4737ce	0.19454882
22	0xbca1a67b	-0.019732704
23	0x3f05bc28	0.5224023
24	0x3eed005f	0.46289346
25	0x3f3583a9	0.7090402
26	0x3d2d8720	0.042365193
27	0x3e95b6e6	0.29241103
28	0xbe829326	-0.2550289
29	0xbe90a265	-0.28248897
30	0x3e5a9d3d	0.21349044
31	0xbe50a8a6	-0.20376834
32	0x3cd47e29	0.025939064
33	0x3e1a4231	0.15064313
34	0x3ef2286e	0.4729647
35	0x3ef3a845	0.47589317
36	0x3f147018	0.5798354
37	0x3f4ef280	0.80838776
38	0x3f00af98	0.50267935
39	0x3f5a2a4f	0.8522081
40	0xbd6a7e74	-0.0572495
41	0xbd0f18d0	-0.034935772
42	0xbebbe954	-0.36701453
43	0x3ef9b9f0	0.48774672
44	0xbeb68b16	-0.3565299
45	0x3e8778d0	0.2645936
46	0x3f2fb388	0.6863332
47	0xbdd3cb85	-0.10341553
48	0xbd934691	-0.07191194
49	0x3db2da5e	0.087330565
50	0xbdc9c8c8	-0.09852749
51	0x3ed05b0e	0.4069447
52	0xbef3c612	-0.47612053
53	0xbeaf24bf	-0.34207723
54	0xbeed9cce	-0.46408695
55	0xbe700927	-0.23440991
56	0x3ed001a5	0.40626255
57	0x3e0fcf31	0.14043881
58	0xbed7c471	-0.4214206
59	0xbdb44889	-0.088028975
60	0xbbb66cdf	-0.0055671777
61	0x3f13aa9d	0.5768221
62	0xbdb122a1	-0.08649183
63	0xbe823d3a	-0.25437337
64	0x3ef55d6f	0.47922847
65	0x3e3a12b4	0.18171197
66	0xbe85911a	-0.26087266
67	0xbea77297	-0.32704613
68	0xbda69b00	-0.08135033
69	0x3e05872e	0.13039848
70	0x3f39a606	0.72518957
71	0x3d41d9b6	0.047326766
72	0xbe188f2f	-0.1489837
73	0x3db5eccb	0.08883055
74	0x3eeaf749	0.4589179
75	0xbd806f88	-0.06271273
76	0x3ed89101	0.4229813
77	0x3ec94e8c	0.3931774
78	0xbed6eec7	-0.41979048
79	0x3f10b595	0.5652707
80	0xbf0bf8b5	-0.5467637
81	0xbea8b028	-0.32946897
82	0x3f444472	0.7666694
83	0x3dedbca5	0.11608247
84	0xbd256cfb	-0.040387135
85	0x3e8b7734	0.27239382
86	0x3f1aa13e	0.60402286
87	0x3ec3f296	0.38271016
88	0xbeb0f501	-0.34561923
89	0xbcdf38e8	-0.027248815
90	0xbe90e432	-0.282991
91	0xbecba649	-0.39775303
92	0xbc12ddb6	-0.008963993
93	0x3d80d809	0.062912054
94	0x3dd24ccd	0.10268555
95	0x3f2da5cd	0.67831117
96	0x3d928aff	0.07155418
97	0x3eac7df2	0.3368984
98	0xbe6fa37e	-0.23402211
99	0xbf4ca5c5	-0.79940444
100	0x3eecebab	0.4627355
101	0xbe4774d5	-0.19478162
102	0xbdb55753	-0.088545464
103	0x3e28c140	0.16479969
104	0x3ee7ad6d	0.452495
105	0xbe9d7cbf	-0.30759236
106	0x3f14d90d	0.58143693
107	0xbf3ac400	-0.7295532
108	0x3c1fdffe	0.009757994
109	0xbdb8e3c9	-0.090278216
110	0x3e669167	0.22516404
111	0x3ee994bb	0.45621285
112	0xbeaec5f9	-0.34135416
113	0x3e6f85d6	0.23390898
114	0x3ed51d7f	0.41624066
115	0x3ecec0a9	0.40381363
116	0xbe89e97c	-0.26935947
117	0x3ea9246e	0.33035606
118	0x3ea5e4e2	0.32401186
119	0xbc0fdedb	-0.00878116
120	0xbe7794c0	-0.24177837
121	0xbe6fbc0c	-0.23411578
122	0xbdee069d	-0.11622355
123	0x3ebb52be	0.36586565
124	0x3ea86d5c	0.32895935
125	0xbeeebcad	-0.46628323
126	0x3e92a65c	0.28642547
127	0xbe96dea9	-0.2946675
128	0xbed43866	-0.4144928
129	0x3f162f89	0.5866628
130	0xbed726a8	-0.4202168
131	0x3e4346a9	0.19069923
132	0x3f177dc8	0.591763
133	0x3f27c54c	0.65535426
134	0x3ebf5856	0.37372082
135	0x3da8efe5	0.08248881
136	0x3e1ccc95	0.15312417
137	0x3f17a844	0.5924113
138	0xbec88e07	-0.39170858
139	0x3e1b65bf	0.15175532
140	0x3e8e5961	0.27802566
141	0xbe8f41f0	-0.27979994
142	0xbe6b86d9	-0.23000659
143	0xbebb3d44	-0.3657018
144	0xbdc898a4	-0.09794739
145	0xbe7a9cb2	-0.24473837
146	0x3e8242d2	0.25441605
147	0xbe034359	-0.1281866
148	0xbed96361	-0.42458633
149	0x3f00fa71	0.50382143
150	0x3e0007b5	0.1250294
151	0x3e133234	0.1437462
152	0x3eb8b480	0.3607521
153	0x3f338596	0.7012571
154	0xbe2347ee	-0.15945408
155	0x3d9a4a0c	0.075336546
156	0x3f10efa1	0.56615645
157	0xbdcefb37	-0.10106509
158	0xbe2aaa9f	-0.1666665
159	0xbf0ad2b4	-0.5422776
160	0xbed9b482	-0.4252053
161	0x3dcb3b28	0.099233925
162	0xbe55a1f4	-0.20862561
163	0xbe73ddc1	-0.23815061
164	0xbe950d7f	-0.2911186
165	0x3e1b9e24	0.15197045
166	0xbd35a2d4	-0.044344738
167	0xbf1cf40f	-0.61309904
168	0x3e090c25	0.13383539
169	0x3f0cadf8	0.54952955
170	0x3f0ef947	0.5584912
171	0x3e81b1a5	0.25330845
172	0xbe291383	-0.1651135
173	0xbea76c24	-0.32699692
174	0x3f033def	0.5126638
175	0x3ebe65b8	0.3718698
176	0xbf0083a1	-0.5020085
177	0x3e8864aa	0.266393
178	0x3ed25a88	0.41084695
179	0x3daff924	0.08592442
180	0x3f16b716	0.58873117
181	0x3f01e105	0.5073398
182	0xbe9bb199	-0.30408934
183	0xbec0d8c6	-0.37665385
184	0x3f13aa1c	0.5768144
185	0x3edd392f	0.4320769
186	0x3f1183c8	0.5684171
187	0x3f411e1a	0.75436556
188	0xbd7ad892	-0.061241694
189	0x3e4d229f	0.20032738
190	0xbe7c2d3b	-0.24626629
191	0x3e4e6277	0.20154749
192	0x3ef40777	0.47661945
193	0x3e91a84c	0.28448713
194	0xbe8b3446	-0.2718832
195	0xbd47b937	-0.04876062
196	0xbcae47b7	-0.02127443
197	0xbcd1cfd7	-0.025611801
198	0x3f3cfdb3	0.73824614
199	0x3e87517d	0.26429358
200	0xbedf9ed1	-0.43675855
201	0x3f1da5ea	0.6158129
202	0xbe958022	-0.2919932
203	0x3e3e6045	0.18591411
204	0x3d94e853	0.07270875
205	0x3f0c8883	0.548958
206	0xbf002c70	-0.50067806
207	0x3f1c7a9a	0.61124575
208	0x3e3ef2c7	0.186473
209	0xbf0ace2e	-0.54220855
210	0x3ddd4344	0.108038455
211	0xbef73b6b	-0.4828752
212	0x3cfbc521	0.030733647
213	0x3e907532	0.28214413
214	0x3ef1dd9c	0.47239387
215	0x3dfdfdea	0.12401946
216	0xbf1c824a	-0.61136305
217	0x3e30f42a	0.17280641
218	0x3da8f6b6	0.082501814
219	0xbf0e4017	-0.55566543
220	0x3eac361f	0.3363504
221	0x3ec36046	0.38159388
222	0x3f1a91da	0.603788
223	0x3ed742d6	0.4204318
224	0xbe93bd92	-0.28855568
225	0xbe953125	-0.29139057
226	0x3db1cc6f	0.08681571
227	0xbd973616	-0.07383363
228	0xbd7d216e	-0.06179946
229	0x3ee29efe	0.44261926
230	0x3f1ab040	0.60425186
231	0xbe81dd79	-0.25364283
232	0xbde4701d	-0.111541964
233	0x3d917e02	0.07104112
234	0xbd10dd06	-0.035367034
235	0xbe411e67	-0.18859254
236	0x3f12f047	0.57397884
237	0xbefaa4d7	-0.48953888
238	0x3ebaa45b	0.36453518
239	0x3e387913	0.18014936
240	0xbeb0fec9	-0.34569386
241	0x3e65caee	0.22440693
242	0xbb5015e0	-0.003175132
243	0xbe305b6f	-0.17222379
244	0xbed95f7f	-0.4245567
245	0x3f083b6f	0.5321569
246	0x3f0455ec	0.51693606
247	0xbec60245	-0.38673607
248	0xbea4a18e	-0.32154506
249	0x3ef7fa87	0.48433325
250	0x3ec2f238	0.38075423
251	0x3f0c5273	0.5481331
252	0x3e38268c	0.17983454
253	0x3f059476	0.5217966
254	0x3d8b8fd7	0.06814545
255	0x3e7589f1	0.23978402

dense_6/MatMul_bias f4 [16]
0	0x3c033b31	0.008009718
1	0xbb08eb19	-0.0020892082
2	0x3defcbdb	0.11708804
3	0x3dc14460	0.094368696
4	0xbdf0ec03	-0.11763766
5	0xbdf53f7f	-0.119750015
6	0xbe274bdb	-0.1633753
7	0x3dcd6ace	0.10030137
8	0x3d9598c5	0.07304529
9	0xbcd6275c	-0.026141815
10	0xbe1c7c1c	-0.15281719
11	0x3d4601f2	0.0483417
12	0x3d1f5ee3	0.03890885
13	0xbd1a5722	-0.037680753
14	0x3ce860b0	0.028366417
15	0xbdbf31d4	-0.09335676

dense_6/kernel/transpose f4 [16, 16]
0	0x3e9ee6ca	0.31035453
1	0xbf91d8f6	-1.1394336
2	0x3eae7886	0.34076327
3	0xbe9be1d7	-0.3044574
4	0xbf8a32e5	-1.0796782
5	0xbd8060de	-0.06268476
6	0xbcafa791	-0.021442207
7	0xbf6c920e	-0.9241036
8	0xbeb5e705	-0.35527816
9	0x3e53062c	0.20607823
10	0x3e98b312	0.2982412
11	0xbdeced25	-0.11568669
12	0xbd250b57	-0.040294018
13	0x3eeb4851	0.4595361
14	0xbf50085f	-0.81262773
15	0x3cdd097c	0.026982062
16	0x3eb2261e	0.34794706
17	0xbf8d5ab5	-1.1043307
18	0xbf3ee023	-0.74560755
19	0xbf66fd11	-0.902299
20	0xbf19024f	-0.5976915
21	0x3df49178	0.119418085
22	0xbed50525	-0.41605487
23	0x3d019b1a	0.031642057
24	0x3f257913	0.6463787
25	0xbe540559	-0.20705165
26	0x3e7af8f6	0.24509034
27	0xbe9e2869	-0.30890206
28	0xbf595442	-0.8489419
29	0xbec91176	-0.39271134
30	0x3ef69a04	0.4816438
31	0x3e8fb8fd	0.28070822
32	0xbf907a36	-1.1287296
33	0xbd6dfe18	-0.05810365
34	0x3e98f4d5	0.29874292
35	0x3f3cef84	0.7380297
36	0xbe418638	-0.18898857
37	0x3e16e6da	0.147365
38	0xbf3d9ad0	-0.7406435
39	0x3d049808	0.03237155
40	0x3ea377d1	0.3192735
41	0xbf16ad04	-0.5885775
42	0xbf68c907	-0.90931743
43	0xbe9e3775	-0.30901685
44	0xbd0e7c0e	-0.034786277
45	0xbe32a033	-0.17443924
46	0xbed668fc	-0.41876972
47	0x3eff4e42	0.49864393
48	0xbf57da8a	-0.8431784
49	0x3dea0fdc	0.11428806
50	0xbf84fb53	-1.0389198
51	0xbf73f1c3	-0.95290774
52	0xbf9591a9	-1.1685077
53	0xbe342375	-0.17591651
54	0xbf69bcf1	-0.91303927
55	0xbf0eaaec	-0.55729556
56	0x3ea85ddf	0.32884118
57	0xbf367f14	-0.71287656
58	0xbecd980d	-0.40155068
59	0xbd1538e5	-0.036431212
60	0x3f370bd4	0.71502423
61	0x3f293163	0.66090983
62	0x3f0af250	0.5427599
63	0xbeeb8e97	-0.46007225
64	0x3f12b054	0.57300305
65	0xbd094b84	-0.033519283
66	0xbe5d251a	-0.21596184
67	0xbe864e7c	-0.26231754
68	0x3e8e14bb	0.2775019
69	0xbf63791c	-0.88856673
70	0xbc95f86b	-0.018306931
71	0xbdddeaef	-0.10835826
72	0xbf842324	-1.0323224
73	0x3eb0f458	0.3456142
74	0x3ed46e4a	0.41490394
75	0xbd5a2139	-0.05325434
76	0xbefaf502	-0.4901505
77	0x3ea2d772	0.31804997
78	0x3d2371e3	0.039903533
79	0xbf8b6ada	-1.0891984
80	0xbdcf2c4a	-0.10115869
81	0xbf070b4a	-0.527516
82	0x3ea41378	0.32046103
83	0x3ca1cd40	0.019751191
84	0xbf7c20e5	-0.98487693
85	0xbe90e3ce	-0.282988
86	0x3b94c7d7	0.0045404243
87	0xbe1625f6	-0.14662918
88	0xbf6e8bd3	-0.93182105
89	0x3f26f5ef	0.65219015
90	0x3e0eadbe	0.13933465
91	0xbe0aec48	-0.13566697
92	0x3cc7c301	0.024384977
93	0xbf6cf8d2	-0.9256717
94	0x3eaf26dc	0.34209335
95	0x3ef50da8	0.4786198
96	0xbe80485f	-0.25055215
97	0x3e3912fa	0.18073645
98	0xbf19ad10	-0.600297
99	0xbcd68734	-0.026187517
100	0xbf4f61e3	-0.8100874
101	0x3edea59f	0.43485734
102	0xbf057666	-0.52133787
103	0x3f1b80ca	0.6074339
104	0x3e72db49	0.23716463
105	0xbf180efb	-0.5939786
106	0xbbf080b1	-0.00733956
107	0xbf952d26	-1.1654403
108	0xbf83a5b8	-1.0284948
109	0x3e9d4d04	0.3072282
110	0xbe2d2af7	-0.16910921
111	0xbeb76c28	-0.35824704
112	0x3ee98a69	0.4561341
113	0x3f385afa	0.7201382
114	0xbecc93fb	-0.3995665
115	0xbf6de5e5	-0.92928916
116	0x3d47e7eb	0.04880516
117	0xbe931014	-0.28723204
118	0xbd2f0a35	-0.042734344
119	0xbfc4974f	-1.5358676
120	0xbf5732e0	-0.84062004
121	0xbe3d5f52	-0.18493393
122	0xbd3ed186	-0.046586536
123	0x3e031513	0.12801008
124	0x3f2368ae	0.63831604
125	0xbf03f956	-0.5155233
126	0x3edb1dd0	0.42796183
127	0xbefbb5ff	-0.4916229
128	0x3ccbf078	0.024894938
129	0xbf0ab7fa	-0.54186976
130	0x3f10adf3	0.56515425
131	0xbe68c323	-0.22730689
132	0xbe208173	-0.15674381
133	0xbf453e1b	-0.7704789
134	0x3f2b4555	0.6690267
135	0x3f145019	0.5793472
136	0xbef211a8	-0.47279096
137	0x3ee0816d	0.43848744
138	0xbf497e01	-0.7870789
139	0x3ec6e501	0.3884659
140	0xbf0c1f70	-0.5473547
141	0x3ed4cd07	0.41562673
142	0xbf6b540e	-0.9192513
143	0xbf34cfff	-0.70629877
144	0x3e99976d	0.2999834
145	0xbf402d45	-0.75069076
146	0xbf1699ed	-0.5882862
147	0xbe3b88c6	-0.18313894
148	0x3ee74752	0.451716
149	0xbde903cf	-0.113776796
150	0xbf49b629	-0.7879358
151	0x3d5845cf	0.05280095
152	0xbf3af60a	-0.73031676
153	0x3ebdde73	0.37083778
154	0x3edcadc4	0.43101323
155	0xbf8a04ea	-1.078275
156	0xbd7e5be8	-0.062099367
157	0xbe5e25de	-0.21694133
158	0x3df04841	0.11732531
159	0x3eceb81a	0.40374833
160	0x3ec99def	0.39378306
161	0xbf8c72c1	-1.097252
162	0x3ee4616e	0.44605583
163	0x3ef0d3f0	0.47036695
164	0x3ea9f1f2	0.33192402
165	0xbf2485c5	-0.64266616
166	0x3e164d99	0.14678039
167	0xbea0a1aa	-0.3137334
168	0xbf073b54	-0.528249
169	0x3d50dbf0	0.050991
170	0xbd9daff3	-0.07699575
171	0xbe8f5b05	-0.2799913
172	0x3ef2b35a	0.4740246
173	0xbf4de4f5	-0.80427486
174	0xbf803adb	-1.0017961
175	0x3ea384ef	0.31937358
176	0xbf56340e	-0.8367318
177	0x3e9d6fbc	0.3074931
178	0x3d3db7de	0.046317928
179	0xbebdf23d	-0.37098876
180	0x3e96ce2b	0.2945417
181	0xbf7cca25	-0.9874595
182	0x3e1ee614	0.15517455
183	0xbf804a41	-1.002266
184	0x3ebd6bde	0.3699636
185	0xbf3ddcfc	-0.7416532
186	0x3cf06cb7	0.029348714
187	0x3e3a1193	0.18170767
188	0xbf3ebb11	-0.7450419
189	0x3f136586	0.5757679
190	0xbf18ef0e	-0.5973977
191	0xbf359550	-0.7093096
192	0xbf444e4a	-0.7668196
193	0xbe83d6ee	-0.25749916
194	0x3d01c4af	0.031681713
195	0xbeee97c9	-0.46600178
196	0x3da8d861	0.08244396
197	0xbf0c1b2d	-0.54728967
198	0x3f107b64	0.5643828
199	0xbf7238b9	-0.946178
200	0xbf7f14f8	-0.9964137
201	0xbf73e801	-0.95275885
202	0xbf83d65a	-1.029979
203	0x3ed0b3ff	0.40762326
204	0xbe191258	-0.14948404
205	0xbef98b55	-0.48739114
206	0xbf36db20	-0.7142811
207	0x3f35ada0	0.70968056
208	0xbde22c0c	-0.110435575
209	0xbe96d175	-0.29456678
210	0xbe7a5308	-0.24445736
211	0xbf377e2b	-0.7167689
212	0x3f00075e	0.5001124
213	0x3f32f818	0.6990981
214	0xbe3f7511	-0.18697001
215	0x3e28af22	0.16473058
216	0xbda5a96c	-0.08088955
217	0xbf497a7c	-0.7870252
218	0xbf333471	-0.70001894
219	0x3ec012a5	0.37514225
220	0xbf9a4665	-1.2052733
221	0xbf720a1d	-0.9454668
222	0xbe8cc713	-0.27495632
223	0x3c986b46	0.01860584
224	0xbeb265b9	-0.34843233
225	0xbf38b005	-0.72143584
226	0xbe93907c	-0.2882117
227	0x3ee593db	0.44839367
228	0xbf4c8902	-0.7989656
229	0xbf93b6f4	-1.1540208
230	0xbf5fd6af	-0.87436956
231	0xbf5e5d90	-0.86861515
232	0xbdc7f8b2	-0.09764232
233	0x3eef21e2	0.46705538
234	0x3ed1492e	0.40876144
235	0xbe6ef689	-0.23336233
236	0x3f299bae	0.66253173
237	0x3e296f19	0.16546287
238	0x3f0d81ff	0.55276483
239	0x3d6b0361	0.05737627
240	0xbee2ce89	-0.442982
241	0x3e3d8f65	0.18511732
242	0xbf285d6f	-0.6576757
243	0x3d85e46e	0.0653771
244	0x3ef6d9d9	0.4821308
245	0xbe5ad93c	-0.21371931
246	0xbeef8694	-0.46782362
247	0x3e34501c	0.17608684
248	0xbdd2c468	-0.10291368
249	0x3e1fbd68	0.15599597
250	0xbf1e849c	-0.61921096
251	0x3f08dda0	0.5346317
252	0xbe5e85f7	-0.21730791
253	0xbe83076f	-0.2559161
254	0x3eeb5ab0	0.45967627
255	0xbf13b637	-0.5769991
